model_weights.pth (torch, 202051 bytes, 3 tensors)

in_layer.weight f4 [50, 1000]
0.016542519 -0.0143911755 -0.0061470848 0.014554261 -0.029749895 0.018350497 -0.00691805 0.015477202
0.004894823 -0.004355697 0.009087818 0.0019494045 0.012096371 -0.013048254 -0.001864958 -0.002175787
0.004572689 0.00026342872 0.027024865 0.009879883 -0.011876042 -0.017994566 -0.005239469 -0.013836612
-0.010501599 0.0011095365 0.018345954 0.016286861 -0.030376878 0.019307375 0.009691603 0.030017864
0.020682102 -0.02860723 -0.0302739 -0.014905741 0.02719892 -0.0051746806 0.0131803 -0.014964102
0.031197278 -0.013557436 0.023950815 0.00030804297 -0.016891845 0.016316868 -0.017374955 0.009305141
-0.008987476 -0.003383338 -0.030439524 -0.015556895 0.018679656 -0.007921101 0.03083863 0.02525134
-0.0012632208 -0.020978898 0.018023353 0.009581163 -0.02047048 0.020022599 0.018851688 0.028458564
-0.018042075 -0.005104926 -0.00037081735 0.004583884 -0.024081327 -0.02216019 0.0175185 -0.0073385574
0.01583702 0.0017374404 0.010445949 0.00682597 0.011449085 0.015618283 -0.02934702 0.015635703
-0.022460695 -0.024158536 0.0018532688 -0.0054220962 0.01899493 -0.018378904 -0.027733156 0.022881813
-0.004778084 0.017066102 0.009462717 -0.024155134 0.00639881 0.0073359464 -0.02112848 -0.015127308
0.010892013 0.005660251 -0.013271739 -0.009886463 0.029143892 -0.006207393 0.0178478 0.013672159
-0.020234859 -0.026963005 0.03045646 0.0016625914 0.02203204 0.0063702012 0.010244919 0.0235377
0.0299865 -0.020849122 0.004124537 0.023564676 0.022806665 0.019866306 -0.023017135 -0.022650857
-0.019278564 0.0038173099 0.031396978 -0.019881997 0.017133882 -0.017822398 -0.029687904 -0.006660068
0.018210502 0.029603157 -0.019678283 0.0072791786 0.027034089 0.021021044 0.01983559 0.0223357
0.019825865 0.008006023 -0.021576045 -0.026628494 -0.014454889 -0.0035772787 -0.019393943 0.011418853
0.00969496 -0.0072581526 0.012116041 0.010052437 0.019090923 0.020951461 -0.010893012 0.031006118
-0.0037116013 -0.00094275974 -0.030108776 -0.020280713 -0.018450733 -0.013481573 0.022522608 -0.010385687
-0.023525126 0.012202145 0.010282285 0.020468406 -0.016261738 0.006528503 -0.011659077 -0.0070922263
-0.025121223 -0.01461123 -0.009780077 0.013297447 0.005836607 0.00784451 0.031221498 0.030789722
0.021507548 0.0008836962 -0.021884954 0.024402209 -0.007864344 -0.0026419426 -0.027319886 -0.0061431113
-0.02059678 0.029005842 -0.027265048 -0.024864376 -0.0011780116 -0.017090976 0.011297703 -0.012000249
-0.014761882 0.0017263163 0.022762608 -0.022396108 0.015120488 0.020258829 0.031182475 -0.021981474
0.007978109 -0.02345775 0.026931796 -0.012214201 0.018759098 0.00095921487 -0.00254034 -0.0010291378
0.0053740195 0.014856821 0.0051175887 0.009663935 -0.028448882 0.022905631 0.027574478 0.026707048
0.023392633 -0.02296635 -0.011690783 0.027956154 -0.024273964 0.028502144 -0.024947157 -0.022328608
0.015433135 -0.022842513 -0.007376924 0.022819657 0.0248998 0.029813347 -0.006355857 -0.024635447
0.03122719 -0.0067467 -0.013009489 0.007837467 -0.02229519 0.020723162 0.019837353 -0.025152415
-0.025957672 -0.0026819604 0.013497578 -0.0007844554 -0.016046926 0.00089178677 -0.029640013 -0.022358315
-0.020916404 0.026114095 0.027781613 -0.010907627 0.0013590428 0.014001399 0.003587412 -0.015901135
00000000: 2d84 873c f7c8 6bbc 7c6d c9bb ff74 6e3c
00000010: 0db6 f3bc c853 963c cfb0 e2bb 1794 7d3c
00000020: c064 a03b 3cba 8ebb 12e5 143c 2983 ff3a
00000030: db2f 463c 58c8 55bc 9b71 f4ba a697 0ebb
00000040: 7fd6 953b ce1c 8a39 4063 dd3c 3cdf 213c
00000050: bb93 42bc 5769 93bc daaf abbb f5b2 62bc
00000060: e60e 2cbc de6d 913a 414a 963c 066c 853c
00000070: eed8 f8bc 802a 9e3c 87c9 1e3c 06e8 f53c
00000080: 836d a93c b659 eabc f800 f8bc 3637 74bc
00000090: 45d0 de3c 5e90 a9bb 2ff2 573c fe2b 75bc
000000a0: 6f91 ff3c 0220 5ebc 8034 c43c d480 a139
000000b0: c460 8abc f4aa 853c ec55 8ebc 9774 183c
000000c0: 3540 13bc feba 5dbb 4f5c f9bc 59e2 7ebc
000000d0: 1406 993c 81c7 01bc 4ba1 fc3c e6db ce3c
000000e0: a892 a5ba f0db abbc b6a5 933c 4ffa 1c3c
000000f0: b5b1 a7bc 6f06 a43c db6e 9a3c ef21 e93c
00000100: f9cc 93bc 3947 a7bb 436a c2b9 6834 963b
00000110: 3446 c5bc 4989 b5bc f582 8f3c 4878 f0bb
00000120: a3bc 813c d3ba e33a 7c25 2b3c 63ac df3b
00000130: f194 3b3c d4e3 7f3c 2969 f0bc 7216 803c
00000140: 7eff b7bc 1fe8 c5bc 62e9 f23a d7ab b1bb
00000150: 419b 9b3c 5b8f 96bc a530 e3bc a472 bb3c
00000160: 7991 9cbb 36ce 8b3c 8309 1b3c fde0 c5bc
00000170: 1cad d13b 6162 f03b a215 adbc 87d8 77bc
00000180: 6a74 323c a079 b93b b571 59bc d5fa 21bc
00000190: 2cbf ee3c 6367 cbbb 8d35 923c 3101 603c
000001a0: 93c3 a5bc 85e1 dcbc d37f f93c 4feb d93a
000001b0: 897c b43c 1fbd d03b 4eda 273c 22d2 c03c
000001c0: 40a6 f53c c7cb aabc 2027 873b b50a c13c
000001d0: 0bd5 ba3c aabe a23c 6e8e bcbc 4a8e b9bc
000001e0: 14ee 9dbc d52b 7a3b 1e9a 003d 92df a2bc
000001f0: 5b5c 8c3c 4700 92bc 0c34 f3bc b33c dabb
00000200: 312e 953c 5282 f23c 5a34 a1bc 2d86 ee3b
00000210: 9876 dd3c 5334 ac3c 3f7e a23c 5cf9 b63c
00000220: da69 a23c b22b 033c 3fc0 b0bc 0024 dabc
00000230: 33d4 6cbc c770 6abb 0ce0 9ebc 2416 3b3c
00000240: 9cd7 1e3c ccd5 edbb 5c82 463c fab2 243c
00000250: 9164 9c3c 66a2 ab3c 9b78 32bc 8b00 fe3c
00000260: 563e 73bb 8923 77ba aea6 f6bc bd23 a6bc
00000270: fe25 97bc d1e1 5cbc 5581 b83c bb28 2abc
00000280: c4b7 c0bc 81eb 473c 0777 283c 5cad a73c
00000290: 5637 85bc 0ded d53b b705 3fbc e865 e8bb
000002a0: 06cb cdbc f163 6fbc 9e3c 20bc 89dd 593c
000002b0: 0241 bf3b 4286 003c 3ac4 ff3c ba3a fc3c
000002c0: 9930 b03c d9a7 673a 1348 b3bc 24e7 c73c
000002d0: 73d9 00bc 7124 2dbb f4cd dfbc 274c c9bb
000002e0: 94ba a8bc a99d ed3c f35a dfbc 60b0 cbbc
000002f0: 8367 9aba 6002 8cbc 001a 393c b19c 44bc
00000300: d2db 71bc 9045 e23a a678 ba3c 0b78 b7bc
00000310: ecbb 773c d8f5 a53c 6472 ff3c 7e12 b4bc
00000320: 9db6 023c 782a c0bc 12a0 dc3c 121e 48bc
00000330: aeac 993c d273 7b3a d57b 26bb 22e4 86ba
00000340: 8b18 b03b 066a 733c 72b1 a73b 7b55 1e3c
00000350: a10d e9bc 97a4 bb3c dfe3 e13c bdc8 da3c
00000360: e8a1 bf3c ed23 bcbc b38a 3fbc 4e04 e53c
00000370: 31da c6bc 547d e93c fb5d ccbc 7cea b6bc
00000380: 43db 7c3c 3920 bbbc 20ba f1bb 4af0 ba3c
00000390: aafa cb3c 1f3b f43c cb44 d0bb 47d0 c9bc
000003a0: 2ad0 ff3c 6c13 ddbb c025 55bc b868 003c
000003b0: 67a4 b6bc 9fc3 a93c f281 a23c 700c cebc
000003c0: 2fa5 d4bc d4c3 2fbb f224 5d3c e9a3 4dba
000003d0: d874 83bc ccc6 693a 9dcf f2bc c928 b7bc
000003e0: e158 abbc 3aed d53c 4496 e33c e7b5 32bc
000003f0: e921 b23a 2066 653c c91a 6b3b 1943 82bc

in_layer.bias f4 [50]
-0.008917224 0.010717842 0.055025697 0.0073168464 0.096541636 0.039073706 -0.019169334 0.06253449
-0.025412139 -0.012817835 0.025130682 0.015149728 0.027327029 0.045852005 0.059410147 0.051398173
0.025817053 0.015107126 0.038235076 0.024589114 0.06390736 0.032160096 -0.023727931 0.013453874
0.039307814 0.058052074 0.022044864 0.021121355 0.031684794 -0.01386429 0.05694791 0.033756867
0.0104426835 -0.008501644 0.044550233 -0.017093271 -0.020586733 0.05732565 0.058047865 0.014918969
0.030200887 0.018225325 -0.024245787 0.075226575 0.014491035 0.061944056 0.04732064 0.063303426
0.04592919 0.02335164
00000000: 8c19 12bc e399 2f3c a062 613d 28c2 ef3b
00000010: 9fb7 c53d c00b 203d 0209 9dbc 1512 803d
00000020: 1e2d d0bc e601 52bc dcde cd3c 9136 783c
00000030: efdc df3c 50cf 3b3d 0e58 733d e486 523d
00000040: 497e d33c e183 773c 629c 1c3d 1c6f c93c
00000050: dde1 823d 4eba 033d 1461 c2bc a36d 5c3c
00000060: 3b01 213d 03c8 6d3d 6e97 b43c b106 ad3c
00000070: eac7 013d 0c27 63bc 3642 693d a444 0a3d
00000080: ca17 2b3c 7b4a 0bbc 4e7a 363d 3007 8cbc
00000090: 82a5 a8bc 4dce 6a3d 99c3 6d3d b16e 743c
000000a0: da67 f73c 474d 953c 1a9f c6bc 6410 9a3d
000000b0: ce6b 6d3c 0db9 7d3d 4ad3 413d 3aa5 813d
000000c0: 3f20 3c3d f04b bf3c

out_layer.weight f4 [1, 50]
-0.00024532352 0.3377345 -0.27485648 -0.029082375 -0.82347363 -0.33298036 -0.021305922 -0.41445777
0.018304622 0.010316302 -0.09407045 -0.016041344 0.48005664 0.28558177 -0.6191086 -0.5611661
-0.43597752 0.23479778 -0.11127406 0.100918904 -0.57253647 0.15200524 -0.046490047 0.29106534
-0.27369806 -0.31975308 -0.2674373 -0.16476384 0.16177021 0.0748462 -0.2709787 -0.07903585
-0.12843116 -0.09207473 -0.3039053 -0.0388484 0.01834061 0.7188428 -0.27980694 0.05016605
0.5677029 0.38508412 0.0030686362 -0.5992245 -0.25301114 0.6742975 0.19569169 0.62898606
0.5286674 0.21554326
00000000: c49e 80b9 89eb ac3e fdb9 8cbe 293e eebc
00000010: 2bcf 52bf 677c aabe c289 aebc cf33 d4be
00000020: 93f3 953c b505 293c 02a8 c0bd 2369 83bc
00000030: fcc9 f53e c637 923e e77d 1ebf 95a8 0fbf
00000040: 7238 dfbe d46e 703e a8e3 e3bd 92ae ce3d
00000050: c091 12bf 43a7 1b3e 596c 3ebd 8406 953e
00000060: 2722 8cbe adb6 a3be 8bed 88be dab7 28be
00000070: 17a7 253e f748 993d b8bd 8abe 8cdd a1bd
00000080: 7583 03be ad91 bcbd 7a99 9bbe 801f 1fbd
00000090: 0c3f 963c 1506 383f db42 8fbe eb7a 4d3d
000000a0: fa54 113f bf29 c53e 2c1b 493b c766 19bf
000000b0: ad8a 81be c39e 2c3f 6763 483e 3b05 213f
000000c0: bf56 073f 5fb7 5c3e
